data.pth (torch, 13463 bytes, 6 tensors)

l1.weight f4 [8, 216]
0	0x3e84ce94	0.25938857
1	0xbf110752	-0.56651795
2	0xbe64d4fd	-0.22346874
3	0x3ebbbd79	0.36667994
4	0x3f697b81	0.91204077
5	0xbef3eec8	-0.47643113
6	0x3f4535ba	0.77035105
7	0x3f3d5829	0.73962647
8	0x3edb662e	0.42851394
9	0xbd0b2653	-0.033972096
10	0xbf0af951	-0.54286677
11	0x3fbcc3a2	1.4747202
12	0x3f29d3c5	0.6633876
13	0x3ef5aef4	0.4798504
14	0x3f18fa2d	0.5975674
15	0x3f3e53be	0.7434653
16	0xbdda2b5c	-0.106528014
17	0xbf55207c	-0.8325269
18	0x3e4250db	0.18976156
19	0xbee61ade	-0.44942373
20	0xbe820145	-0.25391594
21	0xbe9b4138	-0.30323195
22	0x3eefc62c	0.4683088
23	0x3f0bd915	0.54628116
24	0xbee5a3d1	-0.44851544
25	0xbca32bb2	-0.019918296
26	0x3f5227ac	0.82091784
27	0xbf20b554	-0.62776685
28	0x3eafd31c	0.3434075
29	0xbed33ec2	-0.41258818
30	0xbe85a861	-0.26105025
31	0x3f4d1154	0.80104566
32	0x3ea08af8	0.31356025
33	0x3f102af6	0.56315553
34	0x3d19e1d5	0.037568886
35	0xbf810772	-1.0080397
36	0xbf28bbd7	-0.6591162
37	0x3d8aad8f	0.06771385
38	0x3e9a542f	0.30142352
39	0xbeb421eb	-0.35182127
40	0x3f0cdd85	0.5502551
41	0x3f035762	0.5130521
42	0x3e922889	0.2854655
43	0x3f479b17	0.77971023
44	0x3d071a1b	0.03298388
45	0x3f684797	0.9073424
46	0x3e33e9a5	0.17569597
47	0xbf02ec9d	-0.51142293
48	0x3fad1b64	1.3523984
49	0xbe5e767c	-0.21724886
50	0xbf03f2fd	-0.51542646
51	0xbf3a4187	-0.72756237
52	0x3de9f3ce	0.11423455
53	0xbf6d4bbe	-0.926937
54	0x3eb16c92	0.34653145
55	0x3e61f83d	0.22067352
56	0xbed4ef74	-0.41588938
57	0xbe97dd4d	-0.29661027
58	0x3f0eb5e9	0.5574632
59	0x3f37b729	0.71763855
60	0x3f1a3c32	0.602481
61	0xbe17688c	-0.14785975
62	0x3f314ae4	0.692549
63	0xbf19883d	-0.5997351
64	0x3eec71cb	0.46180567
65	0x3f142da6	0.57882154
66	0xbd669a37	-0.056299414
67	0x3fbe8f19	1.488742
68	0xbd2333ad	-0.039844204
69	0x3e87a290	0.26491213
70	0x3e72c894	0.23709327
71	0xbc90446e	-0.017610755
72	0xbf5b89cf	-0.85757154
73	0x3dc8e221	0.09808756
74	0x3e8bf417	0.27334663
75	0x3f0f6d75	0.56026393
76	0xbeb3c2f3	-0.35109672
77	0xbda71f60	-0.08160281
78	0x3daad189	0.08340747
79	0xbec114f6	-0.37711304
80	0xbf24b249	-0.6433454
81	0xbed2f715	-0.41204134
82	0xbf7b9515	-0.98274356
83	0xbd704a74	-0.058664754
84	0xbd954d08	-0.07290083
85	0x3ec31900	0.3810501
86	0x3eafb46d	0.3431734
87	0xbf248642	-0.6426736
88	0x3f3df6c7	0.7420468
89	0x3b86ecea	0.004117598
90	0xbed39b3e	-0.41329378
91	0x3e0f34cc	0.13984984
92	0x3f001e1e	0.50045955
93	0xbed377a1	-0.41302207
94	0xbed33d76	-0.41257828
95	0x3e3bf2c3	0.18354325
96	0x3f29a134	0.662616
97	0xbdc0e1f5	-0.09418098
98	0xbf3a4602	-0.72763073
99	0x3edb0d40	0.42783546
100	0x3e934b6f	0.2876849
101	0x3d4e2fbd	0.050338496
102	0x3e87bd56	0.2651164
103	0xbea411a0	-0.32044697
104	0x3ece39a2	0.40278345
105	0x3f1b75ad	0.60726434
106	0x3ef97892	0.487248
107	0x3ef938e0	0.48676205
108	0x3eb94f57	0.36193344
109	0x3e2dd458	0.16975534
110	0x3f343e8a	0.7040793
111	0xbe01b66a	-0.12667242
112	0xbeb35c98	-0.3503158
113	0x3cb78b66	0.022405338
114	0x3e85e47f	0.2615089
115	0xbe9cbc4a	-0.30612403
116	0x3ebc4bdd	0.3677663
117	0x3ec075a4	0.37589753
118	0x3f7b86bc	0.98252463
119	0x3f2449cd	0.6417511
120	0x3f36eb9a	0.7145325
121	0xbeefb760	-0.46819592
122	0x3f53574a	0.8255507
123	0x3efb2b31	0.4905639
124	0xbe80618d	-0.25074425
125	0xbeb256ff	-0.34831998
126	0x3f7d2a1d	0.98892385
127	0x3ded0d94	0.115748554
128	0x3e6a041b	0.22853129
129	0x3ede4dd3	0.4341875
130	0x3eea5206	0.45765704
131	0x3f17e618	0.5933547
132	0x3f014a18	0.50503683
133	0x3f29a521	0.6626759
134	0xbdf873eb	-0.121314846
135	0xbf036dc1	-0.51339346
136	0xbec07121	-0.3758631
137	0x3eee62ee	0.46559852
138	0xbee071ba	-0.43836766
139	0x3f0ecb32	0.557788
140	0x3f0c33d1	0.54766566
141	0xbe3fb381	-0.18720819
142	0x3f6e3fc2	0.93066037
143	0x3f31e01b	0.6948258
144	0xbf009f2d	-0.5024288
145	0x3f2760e4	0.6538222
146	0x3f2a5e1b	0.66549844
147	0xbf2c69a5	-0.673487
148	0xbd99dcbe	-0.07512806
149	0x3ee1614a	0.44019538
150	0x3f49103a	0.78540385
151	0x3edbeddb	0.42954907
152	0x3f09c760	0.5381985
153	0x3f0523f7	0.52008003
154	0xbee56c36	-0.4480912
155	0x3f3bb9fe	0.73330677
156	0xbef5b752	-0.47991425
157	0x3ec17ade	0.37789053
158	0xbe35b692	-0.17745426
159	0x3ecca447	0.39969084
160	0x3f562f5a	0.83666
161	0x3ecc16ec	0.39861238
162	0x3f44b4c4	0.76838326
163	0x3ef9146a	0.48648387
164	0xbf76df1a	-0.96434176
165	0xbf25db58	-0.64787817
166	0xbf6c0969	-0.9220186
167	0xbf058bc7	-0.5216641
168	0x3cf1118a	0.029427309
169	0x3e0c00b6	0.13672146
170	0xbed9e871	-0.4256015
171	0x3f080aba	0.5314137
172	0x3e914b1d	0.2837762
173	0x3f1d6540	0.6148262
174	0x3f1a8902	0.6036531
175	0xbf06d454	-0.52667737
176	0xbe7b08f0	-0.24515128
177	0xbeaceac6	-0.33772868
178	0xbdbd82c3	-0.092534564
179	0x3ede3074	0.43396342
180	0x3f40b027	0.7526879
181	0x3e7b06e6	0.2451435
182	0xbf7b2f20	-0.9811878
183	0x3f88249d	1.0636173
184	0x3ee3375e	0.4437818
185	0x3edb5027	0.4283459
186	0x3f329f2f	0.69774145
187	0xbc7216b6	-0.0147759225
188	0x3f3185e2	0.69344914
189	0x3e35d9bb	0.17758839
190	0xbf0b2ac5	-0.54362136
191	0x3dbbd855	0.091721214
192	0xbf06cba3	-0.52654475
193	0x3e722eaf	0.23650621
194	0x3e8a9b64	0.2707168
195	0xbf492e42	-0.7858621
196	0x3f58a54e	0.84627235
197	0x3f780f56	0.968984
198	0x3f78e5a5	0.9722541
199	0x3eb87144	0.36023915
200	0x3f45a10a	0.7719885
201	0x3ecfb22f	0.4056563
202	0xbdde877a	-0.10865684
203	0x3eb6b36b	0.3568376
204	0x3d3933d9	0.04521546
205	0x3e82167b	0.25407776
206	0x3f1b3031	0.6062041
207	0xbee615ce	-0.4493851
208	0x3edef01b	0.4354256
209	0x3e2d7d08	0.16942227
210	0x3f2e77ab	0.6815135
211	0xbdb84009	-0.08996589
212	0xbf02c4f3	-0.5108177
213	0x3d0305db	0.031988006
214	0x3f228347	0.63481563
215	0xbe4989b6	-0.19681439
216	0x3e919ea1	0.28441337
217	0xbe26b580	-0.16280174
218	0x3ee45d63	0.44602498
219	0x3f0e4ec8	0.5558896
220	0x3ed8a604	0.4231416
221	0x3c80cd5e	0.015722927
222	0xbf2e02a3	-0.67972773
223	0x3f986bc5	1.1907889
224	0x3e43ccd2	0.19121101
225	0x3f03ae47	0.514378
226	0x3f0a339f	0.5398502
227	0x3e999e7e	0.30003732
228	0xbd9a4c12	-0.075340405
229	0xbebd48c1	-0.3696957
230	0x3e9d0359	0.30666617
231	0xbed22b10	-0.4104848
232	0xbf543c09	-0.82904106
233	0x3e808c46	0.2510702
234	0x3f07d7dd	0.53063756
235	0x3f0ba8df	0.5455455
236	0x3f2b179e	0.6683291
237	0x3edba076	0.4289586
238	0x3f3e0726	0.7422966
239	0xbe845df7	-0.2585294
240	0x3f238865	0.63879997
241	0x3ebbe7f9	0.3670042
242	0x3fa5bd60	1.2948418
243	0x3efbc0ec	0.49170625
244	0x3f22363d	0.6336401
245	0xbefa0eb4	-0.48839343
246	0x3f0ea1ee	0.55715835
247	0x3f3c9057	0.73657745
248	0xbd767db0	-0.06017846
249	0xbed1117d	-0.40833655
250	0xbda15c1b	-0.07878896
251	0xbf54dc2a	-0.83148444
252	0x3e9b62c0	0.30348778
253	0x3f11ae8c	0.5690696
254	0x3f2fd07f	0.68677515
255	0x3f04e1b5	0.519069

l1.bias f4 [8]
0	0x3eb7be82	0.35887533
1	0x3f35ddd3	0.710416
2	0x3f2bf1cc	0.6716583
3	0x3f516b00	0.81803894
4	0x3f6f8afd	0.93571454
5	0x3f2d870b	0.67784184
6	0x3ee45b02	0.44600683
7	0x3f0e7dec	0.5566089

l2.weight f4 [8, 8]
0	0x3d704e05	0.058668155
1	0x3e2383b8	0.15968215
2	0xbf90a7d8	-1.1301222
3	0x3fa588f8	1.2932425
4	0x3f1b91a6	0.60769117
5	0x3fd836c0	1.6891708
6	0x3fcfc768	1.6232729
7	0x3fedeb27	1.8587388
8	0x3ff52da4	1.9154553
9	0xbfb4822d	-1.4102226
10	0x3fbc5f1a	1.4716523
11	0x3d814780	0.06312466
12	0x3f96a781	1.1769868
13	0xbdfb7da6	-0.12279825
14	0x3f3b8bff	0.7326049
15	0xbf571c6d	-0.8402775
16	0xbedf4804	-0.4360963
17	0xbf0270cd	-0.5095337
18	0x3f037f76	0.51366365
19	0x3fd2f09f	1.6479682
20	0x3fd05a4c	1.6277556
21	0x3fbedcb0	1.4911098
22	0xbfff0e8d	-1.9926316
23	0x3fb1fdd6	1.390559
24	0xbf475eb8	-0.77878904
25	0x3ffae432	1.960089
26	0x3fdd43ab	1.7286276
27	0x3f8b99fa	1.0906365
28	0xbe110fb7	-0.14166151
29	0xbf93d6c4	-1.1549916
30	0x3fb29957	1.3953046
31	0xbfa2dfb9	-1.2724525
32	0xbef19b09	-0.47188595
33	0x3f8421be	1.0322797
34	0x3f1a76e2	0.6033765
35	0xbfad5ff5	-1.3544909
36	0x3ffc755d	1.9723316
37	0x3f7fda4d	0.99942476
38	0xbf848749	-1.0353786
39	0xbf3b86e6	-0.73252714
40	0x3f3e0bff	0.74237055
41	0xbee9a8da	-0.45636636
42	0x3e973b97	0.2953765
43	0x3f8c3d0e	1.0956132
44	0x3f0e74d7	0.55647033
45	0xbe601e69	-0.218866
46	0xbd64fa12	-0.055902548
47	0xbebe959b	-0.37223515
48	0xbe3e8354	-0.18604785
49	0xbe6896ae	-0.2271373
50	0x3f89f1ae	1.077688
51	0xbf3006cb	-0.68760365
52	0x3fbcdda6	1.4755142
53	0xbfba4288	-1.4551554
54	0x3f3c1fb4	0.73485875
55	0x3ee18212	0.44044548
56	0x3fd162a3	1.6358227
57	0x3f6c4db7	0.92306083
58	0x3f3eda50	0.7455187
59	0xbf9eff03	-1.2421573
60	0xbf80c066	-1.0058715
61	0x3e60ca0b	0.21952073
62	0x3f32a120	0.6977711
63	0x3fd96f4f	1.6987094

l2.bias f4 [8]
0	0x3ef3fc0c	0.47653234
1	0xbe0b4a40	-0.13602543
2	0x3f33acca	0.7018553
3	0x3f71dd5c	0.9447839
4	0x3f2aebaa	0.66765845
5	0xbc8d922a	-0.01728161
6	0x3eb9d109	0.36292294
7	0xbd488641	-0.04895616

l3.weight f4 [26, 8]
0	0xbe637600	-0.22212982
1	0x3e01e880	0.12686348
2	0xc0635e27	-3.5526216
3	0x3e48928a	0.1958715
4	0xc03a71d3	-2.9131973
5	0xbfdb512d	-1.7134148
6	0x3ed3eed8	0.4139316
7	0x3f69ab09	0.91276604
8	0x3f371150	0.7151079
9	0x3e8ef0f8	0.2791822
10	0xbf97efd1	-1.1870061
11	0xbffce3ac	-1.975698
12	0xbfba4947	-1.4553612
13	0xbfa459f9	-1.2839957
14	0xbf7883d3	-0.9707615
15	0x3f313c59	0.6923271
16	0xc03723eb	-2.8615673
17	0x3e64fdcb	0.2236244
18	0xbee43c25	-0.44577137
19	0x3e55d812	0.20883206
20	0x3ef5a278	0.47975516
21	0xbe8aa596	-0.27079457
22	0x3f12bc23	0.57318324
23	0xbf147d06	-0.5800327
24	0xbd9c1259	-0.07620687
25	0xbc7cb443	-0.015423837
26	0xbddb24ea	-0.107004
27	0x3e9b9a54	0.3039118
28	0xbf8daeb4	-1.106894
29	0xbcad28aa	-0.021137554
30	0x3f3f976c	0.74840426
31	0xc020a642	-2.5101476
32	0x3d59b424	0.05315031
33	0xc03035f1	-2.7532923
34	0x3e0d8187	0.13818942
35	0x3e92dd24	0.28684342
36	0x3f868c7c	1.0511622
37	0xbfbd6e6f	-1.4799327
38	0xbfb891bf	-1.4419478
39	0xc02e793d	-2.7261498
40	0x3f102d73	0.5631935
41	0xbffa87c4	-1.9572682
42	0xbf227fa0	-0.6347599
43	0xbe6f5d5f	-0.23375462
44	0x3e749d2a	0.23888078
45	0xc082b64b	-4.0847526
46	0x3cfc9783	0.030833965
47	0xbe077f0c	-0.13232058
48	0xbfb03dc8	-1.3768854
49	0x3e4201f0	0.18946052
50	0x3e190801	0.1494446
51	0x3e691c01	0.22764589
52	0x3ead858e	0.33890957
53	0x3e898ada	0.26863748
54	0x3e3abeaf	0.18236803
55	0xc0314eff	-2.7704465
56	0xbd93bbc6	-0.07213549
57	0xbcc2e67f	-0.02379155
58	0x3f0f75ee	0.5603932
59	0xc00c4905	-2.1919568
60	0xc0014b5b	-2.0202243
61	0x3ef1cdb6	0.47227257
62	0xbfb105a4	-1.3829846
63	0x3dd18033	0.1022953
64	0xbff854eb	-1.9400915
65	0x3e90692b	0.28205237
66	0xc0104304	-2.2540903
67	0x3eb9ea3f	0.36311528
68	0xbecc4b71	-0.39901307
69	0xbf47d80f	-0.78064054
70	0x3e2c9ce1	0.1685672
71	0x3f3b5511	0.73176676
72	0xc0146d43	-2.3191688
73	0xbfd0e272	-1.6319106
74	0xbeacd9a5	-0.337598
75	0x3f54ac6d	0.830756
76	0x3f1e5d2f	0.61860937
77	0xc021c628	-2.5277195
78	0x3e598ad8	0.21244371
79	0xbccc8a4d	-0.02496829
80	0xbf9a631a	-1.2061493
81	0x3f350266	0.70706785
82	0xbdd9d0f9	-0.106355615
83	0xbfda0333	-1.7032226
84	0x3eff8f6e	0.49914116
85	0x3e036d49	0.12834658
86	0xbec3050f	-0.38089797
87	0xbe4ea619	-0.20180549
88	0x3f46ac61	0.7760678
89	0xc002eca2	-2.045693
90	0xc02d6dc8	-2.7098255
91	0xbecbaf71	-0.3978229
92	0xbf3a165d	-0.72690374
93	0xc0793c15	-3.894292
94	0xbf883491	-1.0641042
95	0x3f51ffca	0.8203093
96	0xbe4986de	-0.19680354
97	0x3dddc8eb	0.10829338
98	0x3f08f7de	0.53503215
99	0xbfc02d65	-1.5013853
100	0x3f7a1438	0.976871
101	0xbfac6663	-1.3468746
102	0x3e8692a3	0.2628375
103	0xc04bee11	-3.1864054
104	0x3f155950	0.58339405
105	0xbffab599	-1.9586669
106	0x3f310322	0.69145405
107	0x3dfbf4b5	0.123025335
108	0xbfe90cf3	-1.8207077
109	0x3e6450fb	0.22296517
110	0xbf7f97d2	-0.99841034
111	0xc001bbe5	-2.0270932
112	0xbf72ed00	-0.94892883
113	0xbf46a788	-0.7759938
114	0x3db79724	0.08964375
115	0xbeb4919a	-0.35267335
116	0x3f0d6ae6	0.5524124
117	0xbfd5348d	-1.6656662
118	0x3e57e53e	0.21083543
119	0x3eac03ba	0.33596593
120	0xbf04125f	-0.5159053
121	0x3e96044a	0.29300147
122	0xbf4045d0	-0.75106525
123	0xbee4a54d	-0.44657364
124	0xbf1163f0	-0.5679312
125	0xbe6a908d	-0.22906704
126	0x3f5120a5	0.81690437
127	0x3b6e8d0c	0.0036399988
128	0x3e5f6793	0.21816854
129	0xbec28b2f	-0.37996814
130	0xbf297918	-0.662004
131	0x3e3ff3eb	0.18745391
132	0xbf844dfb	-1.0336298
133	0xbf984b2f	-1.1897944
134	0xbf0367f4	-0.51330495
135	0x3ed02650	0.4065423
136	0x3f1e8709	0.619248
137	0x3e12de2f	0.14342569
138	0xbec41946	-0.38300532
139	0xbf835269	-1.0259525
140	0xc037fd82	-2.874848
141	0x3e11db97	0.14243923
142	0x3f133d25	0.57515174
143	0xbf0d9017	-0.5529799
144	0x3f613ef2	0.8798667
145	0xbf9cb668	-1.2243166
146	0x3f45fed4	0.7734196
147	0xc03874ab	-2.8821208
148	0xbed39bdb	-0.41329846
149	0x3f0ecfd8	0.55785894
150	0xbf863832	-1.04859
151	0xc009cde1	-2.1531909
152	0xbfa3dbea	-1.2801487
153	0x3f3c5c17	0.7357802
154	0xbfd81ca8	-1.6883745
155	0x3f0d6c23	0.5524313
156	0xbfae9a0f	-1.3640765
157	0x3f40eec0	0.75364304
158	0x3cdb4096	0.026764195
159	0xbf2a439c	-0.66509414
160	0x3db83fc5	0.08996538
161	0xbebfc84e	-0.37457508
162	0xbf25d5bd	-0.64779264
163	0x3f0193a4	0.50615907
164	0xbfcd05e0	-1.6017418
165	0x3d86de01	0.06585313
166	0xbf01060a	-0.5039984
167	0xbe246f88	-0.16058171
168	0xbe5784cc	-0.21046752
169	0xbe2f295d	-0.17105623
170	0xbfbdb596	-1.4821041
171	0x3ed2d069	0.4117463
172	0x3f4bdaeb	0.7963092
173	0xbfd800e4	-1.6875272
174	0x3e71bbfd	0.23606868
175	0xbf7f5058	-0.9973197
176	0xbde01147	-0.109407954
177	0xc01304ad	-2.2971604
178	0xc025bd03	-2.5896614
179	0x3f89b454	1.0758157
180	0xbf8979d8	-1.0740309
181	0xc038e3c6	-2.8889022
182	0x3eebcd9f	0.46055314
183	0xbe107646	-0.14107618
184	0x3ee698af	0.45038363
185	0xc021db4d	-2.52901
186	0x3f48f8c5	0.7850459
187	0xbff1d138	-1.8891973
188	0xbfcdfc05	-1.6092535
189	0xbfcd9469	-1.6060916
190	0xbf70a96c	-0.9400852
191	0x3f50cf97	0.81566757
192	0x3e483965	0.19553144
193	0x3f1498a5	0.5804542
194	0x3d57f9a6	0.052728318
195	0xbf877201	-1.0581666
196	0xbf0a6f2a	-0.5407587
197	0x3f7cf609	0.9881292
198	0xbf8df144	-1.1089253
199	0xbfd9e9d6	-1.7024486
200	0xba83b9f2	-0.0010049923
201	0xc003601e	-2.0527415
202	0x3eca1820	0.3947153
203	0xbfd65a4e	-1.6746309
204	0x3f5e46d3	0.8682682
205	0xc05a86e2	-3.4144826
206	0xbf503baa	-0.8134104
207	0xbe31c5a9	-0.17360558

l3.bias f4 [26]
0	0xbe1e5f49	-0.15466036
1	0xbc9b1b4b	-0.018933913
2	0xbe91015e	-0.28321356
3	0xbea93e76	-0.33055466
4	0x3ec0132f	0.37514636
5	0xbe18521b	-0.14875071
6	0xbed245e7	-0.41068956
7	0xbe9e58f9	-0.30927256
8	0xbe804bc1	-0.25057796
9	0xbd26151a	-0.040547468
10	0xbefe893a	-0.4971407
11	0xbe95616a	-0.29175884
12	0x3e7bc114	0.24585372
13	0x3f684ca2	0.9074193
14	0xbe917f01	-0.2841721
15	0xbe87fb02	-0.2655869
16	0xbe827738	-0.25481582
17	0xbee0dbdd	-0.43917742
18	0x3dbc2656	0.091869995
19	0x3acf5ec6	0.0015821091
20	0x3eac047a	0.33597165
21	0x3e693c0e	0.22776815
22	0x3cfc3e0e	0.030791309
23	0x3e6efe39	0.23339166
24	0xbe2219c0	-0.15830135
25	0xbd734c97	-0.059399214
